app/utils/TinyVGG_DNN_model_0_weights.pth (torch, 98693 bytes, 10 tensors)

conv_block_1.0.weight f4 [10, 3, 3, 3]
00000000: 8202 893e 6531 ae3e 8616 263e 95e0 9c3e
00000010: 076d 243e c0a4 943e a7f4 173d 8b18 9f3e
00000020: 778f d73e b989 adbe 8db8 5d3c f68e 96bd
00000030: 0345 34bd 9fcd d5bd 0bbe de3c cd00 4dbe
00000040: a636 cd3c 0c80 c7bc b1b1 91be 8cfd d4bd
00000050: bbfd 56be 101a 72be f016 6ebe dd0f 2d3d
00000060: 2d69 b1be 7006 6abe 9d4e edbd 2a94 acbe
00000070: 651b 23be fab6 b8be 8d0b e8bc f083 92be
00000080: 6752 3d3d e364 09be 4779 13be 09e4 273d
00000090: 1211 253e 2426 bb3e ed61 603e 6abc 003e
000000a0: 8cde b33e 61f1 6a3e b82c 8f3e eb3b f63e
000000b0: f25b c33e f408 57be 66a2 2c3a a88d 03bd
000000c0: d7c4 8cbc c653 3ebe 5f47 4fbe 9435 30be
000000d0: 8cc9 48be 42d9 003e 91e3 273d be4f 043e
000000e0: 8e91 3c3e 4c63 9c3c b340 663e 93fb 5b39
000000f0: 411e e03c b095 7cbd 96fb 353e 3993 1dbf
00000100: fbfc e1be d973 01bf a117 91be 9679 eebe
00000110: 62e1 d7be 032b e2be 4ab0 44bd e399 acbd
00000120: c9f8 f33d 6815 41be b6fc fbbd 675e 6abe
00000130: d4bb 3cbe a864 e53d 762d 49bd 9937 b63d
00000140: cb29 b2bd 7c20 5fbe 0926 45be 8d54 6ebe
00000150: ad41 68bd 4731 eebe 32d1 59be b03c d4be
00000160: 4cf7 f7be 134d 8dbe b537 733e 9509 aabc
00000170: 9cf1 803e c143 953e 1aed 22be 1b0f 74bd
00000180: 0331 943e 47bf 8fbc a8fa e93b c0ed 0ebe
00000190: 139e 24be 66c0 033e 85a9 153d 9be0 1fbe
000001a0: 8699 413d 05ca 71bd ae8f 8bbd f930 873c
000001b0: cba6 c4be 6075 a4be 9907 d03e 828e 3fbe
000001c0: 1cef 30be 109e 3ebd dd8a 99be ad31 8ebe
000001d0: 395e 083e ccf7 aabe aba3 a4be 21f0 b73d
000001e0: ac62 f8bd a305 9cbe d923 1f3e 9cda 58be
000001f0: 7434 a3be a069 6a3d 4cc7 cdbd cef4 e7bd
00000200: 9d5c 0e3f c57c 80bd 804e 403e 0be6 ca3e
00000210: 237d 6abd 6e28 873e a5b4 ac3e bcf1 77be
00000220: 719c a3be 1c01 cdbe 9d2b 6dbd 2e5b d6bd
00000230: 6230 13bd 7a7a 85be 60aa da3d 086d 68be
00000240: f31f f3bb 9425 633d 3d99 083d 5b5a 5b3e
00000250: bf90 813e 746a 24be c442 b63d 2e61 5abc
00000260: 3e9f 12bd 873d 75bc 0c01 ad3e 847c 01bd
00000270: b8c5 aa3e 447e cb3e 39e1 aa3e b70d 083e
00000280: 9c84 063f 7054 a53e c0ce ca3c 7355 33be
00000290: 5a1f 9a3d e083 ecbc 68e5 bfbd 0c9b 233e
000002a0: bcbe 2f3d 3011 dabd 0d7d c7bd 2094 16bc
000002b0: 9ebd d03d 4418 60bd 97e2 e0bd 0f4d 92bd
000002c0: 27e4 18be f68f 8c3d 0d8a 183e 5387 39be
000002d0: dc13 373d db46 c03d f18b f03c b85c 8cbd
000002e0: 9662 c23d e6ca c33d fe60 933d 5484 0abd
000002f0: 84bc 50bd e800 643e 9c33 1a3d 6470 a8be
00000300: 5e90 c13e 95ce 9d3e 240e 5dbe ec00 c9bc
00000310: 2066 52bd a2d8 91be 0a69 933e a87f 443e
00000320: e5e1 6abe c2a2 4a3e 6ea6 b53e 4967 833d
00000330: c403 6f3d b242 50bd aec9 26be 85f2 a5be
00000340: 6050 90be c6db bbbe 0e93 563d 0ce2 26bd
00000350: 1f7b f9be 029d ccbe 05a9 b6be 5de6 72be
00000360: 87af aabd 951e 3dbe c063 d8bc f280 5ebe
00000370: 7896 a1be 0f9b a5bc 7ae5 43be c58a 4cbe
00000380: 90b6 aebe d085 b03e 190f bd3e 9a64 a03e
00000390: ae55 7e3d b755 1d3b 7a45 593d a204 b13e
000003a0: c111 933e e074 b93e 92c5 533d 1177 f2bc
000003b0: 0fdb 19bd 5039 67be 8187 98be 7800 8cbe
000003c0: 10c5 ab3c debd 60be d04b 15be 04cf 933d
000003d0: 5e1f e03c 35be edbe dc84 383e d879 393e
000003e0: f72a c8be 265e bf3e 9da8 a2bb 650c fabe
000003f0: a6cd 803e 88af 813d 1b71 70be a322 613e
0.26759726 0.3402206 0.1621953 0.30640092 0.16057216 0.29031944 0.037098553 0.31073412
0.42101642 -0.33894137 0.01353277 -0.073514864 -0.044011127 -0.1043961 0.027190229 -0.20019837
0.025050472 -0.02435305 -0.2845588 -0.10399923 -0.20995228 -0.23642755 -0.23250937 0.042251457
-0.34650555 -0.22854018 -0.1158726 -0.3370679 -0.15928419 -0.360771 -0.02832582 -0.28616285
0.046221163 -0.13417391 -0.14401732 0.040988956 0.16119793 0.36552536 0.21912356 0.12571874
0.35130727 0.22943641 0.27963805 0.4809259 0.38156086 -0.20999509 0.00065854785 -0.032117516
-0.017183704 -0.18586645 -0.2024207 -0.17207938 -0.19608134 0.12582877 0.04098851 0.12921044
0.184149 0.019090317 0.22485618 0.00020979186 0.027358176 -0.06166619 0.17771754 -0.6155277
-0.4413832 -0.50567394 -0.2833834 -0.46577138 -0.4216414 -0.4417344 -0.048019685 -0.08427789
0.119126864 -0.18855822 -0.1230406 -0.22887574 -0.18431026 0.11200839 -0.04911562 0.08897323
-0.086993776 -0.21789736 -0.1925279 -0.23274441 -0.05670326 -0.4652197 -0.21271208 -0.4145255
-0.4843086 -0.27597865 0.2375172 -0.020756522 0.25184333 0.29153255 -0.1591076 -0.05958472
0.28943643 -0.017547263 0.0071404763 -0.13957882 -0.16075926 0.12866363 0.03653862 -0.15613024
0.047265552 -0.05903055 -0.06814514 0.016502844 -0.38408503 -0.321208 0.40630797 -0.18706706
-0.17278713 -0.04653746 -0.29988757 -0.27772275 0.13317193 -0.3339218 -0.3215612 0.08981348
-0.12128195 -0.3047305 0.15541019 -0.21177143 -0.31875956 0.057229638 -0.100477785 -0.1132599
0.55610067 -0.06273798 0.18779945 0.39628634 -0.057248246 0.26398033 0.3373157 -0.24213308
-0.31955293 -0.4003991 -0.05790292 -0.1046661 -0.035934813 -0.26070005 0.10677028 -0.22697842
-0.00741958 0.05545576 0.033349264 0.21421187 0.25305745 -0.16056234 0.08899453 -0.0133288335
-0.035796396 -0.014968283 0.3378986 -0.031612888 0.33353972 0.3974477 0.33374956 0.13286482
0.52546096 0.32290983 0.02475679 -0.17513065 0.07525511 -0.028871477 -0.09369928 0.15977114
0.042906508 -0.106478095 -0.097406484 -0.009190589 0.101924166 -0.05471064 -0.109807186 -0.07143604
-0.14930783 0.06863396 0.14896412 -0.18118028 0.044696674 0.093885146 0.029363604 -0.06853622
0.0949146 0.09560184 0.07196234 -0.033817604 -0.050961033 0.2226597 0.037646875 -0.32898247
0.37805456 0.30821672 -0.21587425 -0.024536572 -0.051366925 -0.2848559 0.28791076 0.19189322
-0.22937734 0.1978865 0.35478538 0.064161845 0.0583532 -0.050844856 -0.16287872 -0.3241159
-0.2818632 -0.3669111 0.052386336 -0.04074292 -0.48726746 -0.39963537 -0.35675827 -0.23720689
-0.083342604 -0.18468697 -0.026414752 -0.21728876 -0.3156011 -0.02021554 -0.19130507 -0.19974811
-0.3412366 0.3447709 0.3692558 0.31326753 0.06209343 0.002400739 0.053044774 0.34573847
0.28724483 0.3622198 0.05170209 -0.02959779 -0.037562426 -0.22580457 -0.2979088 -0.27344108
0.02096799 -0.21947429 -0.14579701 0.072172195 0.027358707 -0.4643418 0.18019432 0.18112886
-0.3909528 0.37376517 -0.004963948 -0.4883758 0.25156897 0.06332308 -0.23480646 0.21985869

conv_block_1.0.bias f4 [10]
00000000: 231d f93c cc15 0fbe f8a6 4d3e 4354 753e
00000010: 3e58 4f3e 970d c8bd 0896 27be 7fa1 da3d
00000020: 888f 3d3e 9fdb 423d
0.030409401 -0.13973159 0.20083225 0.23957925 0.20248505 -0.09768217 -0.16365826 0.10675334
0.18511784 0.04757273

conv_block_1.2.weight f4 [10, 10, 3, 3]
00000000: 5cce 96be 3223 b8bd c948 6f3e 8a3c bebe
00000010: bfb5 45be 83b6 df3d 3251 97be 969f 88bd
00000020: 7353 313e 84c5 b1be 6d67 36be f065 4c3d
00000030: 3cc3 b3be 9a36 82be 7f7e f73d da6b 62bd
00000040: c430 1c3c 6a5b 763e ce71 0c3e 1038 d73d
00000050: a9c7 61bb 7698 003e 9b4d d33c 7689 1abe
00000060: 08e3 1cba 744e 5a3d 6bb9 6fbe 02f5 c83d
00000070: 51fc 8bbd bd48 ffbd 4f98 6c3e e46e 3d3e
00000080: 2bc5 2a3d c5b4 203e 8311 573e 377c 463e
00000090: f4ea c13e e484 1c3e ff14 40be 3b94 943e
000000a0: 023b d53d 6454 ba3c e873 943e 3406 443e
000000b0: 46f1 bebd 1ee6 183d 8cc8 9ebe f60a 3cbe
000000c0: 376f bdbd 8463 10bf 0b17 4bbe 7ebf 3e3d
000000d0: 0c2d 03bf 8004 9dbe c2c9 563d 3f94 a0bd
000000e0: f0a4 54bc ba1d 4f3d 71d2 47bd 9050 3cbc
000000f0: f853 16bc 5bb2 9fbc 12ea 5abd 5769 363e
00000100: 4adf 43be 2875 b2be a0d2 1e3f 4332 6abd
00000110: 33f9 cabe a0ec 023f 4232 183d 428f 96be
00000120: d8c7 903d c89a 243e 971a 97bd 210a 7e3d
00000130: 566e 813e 5f43 dd3d 9b22 c5bc 5e6a 8a3e
00000140: e5b4 d03d b1eb 0c3f 5d01 04be 24c6 35bf
00000150: fce2 413f 996b cebd 227e 33bf f37f 193f
00000160: 84aa 20bd 63a5 7bbe c764 3e3e eefc 523e
00000170: 2972 76ba 567e e63d e837 dd3d 06d4 843d
00000180: 0c02 c33d fc97 4e3e 5739 1a3e 7b0e 62bd
00000190: eb53 003e 51f5 84bc 9b62 d53d f249 163e
000001a0: 0433 4d3d 7d0c 1b3e 94e5 3fbd 4a02 3dbd
000001b0: 7e00 ad3e 9e80 a63e 09eb ca3e 0adf 823d
000001c0: 8293 6b3e 978f 813e 124e 43bc 80fe b9bd
000001d0: 6788 32bd 913c 523d 74fc 1e3e 093a 153e
000001e0: ceab b1bd d9e2 163d edd8 f63c 99e2 28be
000001f0: a44f b5bd 8720 9abd bfbb a33e 64a6 8cbe
00000200: 26b4 94bd 51f7 b63e 6e7c 6fbe 8f0f 8dbe
00000210: 70fe b73e 1afc aebd 4dfb 82be cae6 d7be
00000220: ee7e afbe f60a 15be fb72 17bf f7ca c0be
00000230: 56e1 6dbe 1b63 fdbe 20a6 abbe 14ac 46bd
00000240: e999 ad3d f814 8c3c 5859 96bc 4df6 c7bd
00000250: 2c43 1dbd 84d6 db3c 8d1e 3d3d 8853 5abc
00000260: 32b2 2abd 746e 803d d020 543e f67e a53e
00000270: 4071 40be cd4f f43d cf2e 0e3e 22f8 28be
00000280: 6e11 af3c 665f 5c3e 3c72 bdbc a2bf f73c
00000290: d743 903d 252e cb3b 37cb b3bd 6382 c83d
000002a0: 2948 4d3e 5f33 83bd 498c b83b 9152 5dbe
000002b0: 92e8 cc3c 766e ac3e b6b9 c9be 89d9 b5bd
000002c0: ca2a 423e 6e19 c0be f82a a5bd f460 833d
000002d0: 6789 933c 2575 7fbd c8d3 f0bc 3888 8e3c
000002e0: a4e7 d53d 2dc8 a9bc e210 fb3c dc19 7abc
000002f0: 9bd8 4b3e 56bb 133f 68b1 ff3e 1050 cf3e
00000300: ddcf 0c3e 9a02 1abe 3a68 68be 9d3c 68be
00000310: e394 27bf 75ff 1cbf 5b4c 7abe 444e a03c
00000320: f4de 3b3d ec64 f6be 4bbe abbe 8b4a bfbe
00000330: 5c9a f6be d663 05bf 4d1e 46bf dda9 73be
00000340: d19e d93d 31e4 9dbe eb7f c83c be53 973d
00000350: 1f07 5abe 17db f8be 8512 d9be b4f9 efbe
00000360: 5cee fbbe 95e0 02bf 8a8d 1f3d 9bf9 1dbe
00000370: f6c0 0abf 0665 163e cc32 3e3d 9c8c 9dbd
00000380: eb64 eb3c 320c b33e c2d8 283e b812 0f3e
00000390: 1e8e 303e 1396 263e 0996 fc3b f541 4dbe
000003a0: 5094 34be e512 e7be 8498 88bd 327a b3bd
000003b0: 5119 bc3d 736c ccbd efd9 a23d a03a 68bb
000003c0: d8d9 48bc f306 873d f89f 1fbc 0716 133d
000003d0: f874 23bd d27f 013d cc74 ba3c 1db3 ba3c
000003e0: a5b8 703e 1baf 3bbe 5b8a 1ebe 7086 693a
000003f0: 7fd6 a93e fc8d e63e 62d7 d83e 8086 0dbd
-0.29454315 -0.08991088 0.23367609 -0.37155563 -0.19307612 0.10923483 -0.29554135 -0.066710636
0.1731699 -0.34721005 -0.17812891 0.049901903 -0.3510989 -0.25432283 0.12084674 -0.055278637
0.009533111 0.24058309 0.13715288 0.1050874 -0.0034451282 0.12558159 0.025793841 -0.150915
-0.0005984758 0.053297475 -0.23410575 0.098123565 -0.06835235 -0.124650456 0.23104976 0.18499333
0.04169194 0.15693958 0.21002774 0.19383322 0.37874568 0.15285069 -0.1875801 0.2901934
0.104116455 0.022745319 0.2899468 0.19142991 -0.09323363 0.03732883 -0.3101238 -0.18363556
-0.09249728 -0.5640185 -0.19833009 0.04656934 -0.5124061 -0.30667496 0.052438505 -0.07840776
-0.012978777 0.05056546 -0.048784677 -0.011493817 -0.009175293 -0.019494226 -0.053445883 0.17813621
-0.19128147 -0.34855008 0.6204014 -0.05717684 -0.3964325 0.5114231 0.037157305 -0.29406172
0.07069367 0.1607467 -0.073781185 0.06202138 0.25279492 0.10803866 -0.024064353 0.27034277
0.10190753 0.55047137 -0.12891145 -0.71005464 0.75736976 -0.100791164 -0.7011434 0.5996086
-0.039225116 -0.24574809 0.18593131 0.20604298 -0.00094011665 0.112545654 0.10801679 0.06485753
0.09521875 0.20175165 0.15060936 -0.05518959 0.12532012 -0.016230257 0.10419198 0.14676645
0.05009748 0.15141483 -0.046849802 -0.04614476 0.33789438 0.32520002 0.39632443 0.063901976
0.23005489 0.25304863 -0.011920469 -0.09081745 -0.043587115 0.051327292 0.1552599 0.1457292
-0.08675347 0.036837433 0.030132735 -0.1649269 -0.08853081 -0.07525735 0.31979176 -0.27470696
-0.07260923 0.35735562 -0.2338731 -0.27550933 0.35936308 -0.08544178 -0.25582352 -0.42168266
-0.34276527 -0.14554963 -0.5915982 -0.3765485 -0.2323049 -0.49489674 -0.3352518 -0.04850395
0.08476622 0.017099842 -0.01835315 -0.09763775 -0.03839414 0.026835687 0.046171714 -0.013325579
-0.041673847 0.06271067 0.20715642 0.32323426 -0.18793201 0.11929283 0.13885044 -0.16500905
0.021370616 0.21520767 -0.02312576 0.030242745 0.070441894 0.006200569 -0.087789945 0.09790494
0.20047058 -0.06406283 0.0056319577 -0.21613528 0.025013242 0.33678025 -0.393995 -0.08879382
0.18961635 -0.375194 -0.08064836 0.06414977 0.018009854 -0.062367577 -0.02939786 0.017398939
0.104445726 -0.020725334 0.030647699 -0.015264954 0.19906847 0.57707727 0.49940038 0.4049077
0.13751169 -0.15040055 -0.2269601 -0.22679372 -0.6546156 -0.61327296 -0.2444319 0.01956857
0.04586692 -0.48123872 -0.3354362 -0.3736156 -0.48164642 -0.5210546 -0.77389985 -0.23795266
0.10625995 -0.3083816 0.024475059 0.073890194 -0.21291779 -0.48604652 -0.42396942 -0.46870196
-0.4920529 -0.51123935 0.03895334 -0.15427248 -0.54200685 0.14686975 0.046435162 -0.07692835
0.028734645 0.34970242 0.16488937 0.13971984 0.17241713 0.16268186 0.0077083153 -0.20044692
-0.17634702 -0.45131603 -0.06669715 -0.08763541 0.09184516 -0.099816225 0.07951724 -0.0035435334
-0.012258969 0.06593122 -0.009742729 0.03590968 -0.039906472 0.03161604 0.022760771 0.022790486
0.23507936 -0.18328516 -0.15482466 0.00089082774 0.3317146 0.450302 0.42351824 -0.034552097

conv_block_1.2.bias f4 [10]
00000000: c99a 94bd 1d8a 26be 36ce 2a3d 8347 07be
00000010: 6070 36be 20ce 1abd c478 653e e030 253e
00000020: 9201 b9bd 4407 3d3d
-0.072560854 -0.16263624 0.041700564 -0.13210873 -0.17816305 -0.037794232 0.2240935 0.16131926
-0.09033503 0.046149507

conv_block_2.0.weight f4 [10, 10, 3, 3]
00000000: 9327 03bf 04ab 06bf 069b 90be 88b1 dabe
00000010: c157 01bf 1eb1 05bf f7e5 dcbd 4412 34be
00000020: fd83 6ebe 7840 d2bd 63bf 81be 1507 99be
00000030: ff3e bbbc 8f09 333d 0390 53be c917 09bb
00000040: 0992 f83d 6727 2c3d da30 babe 6f28 0cbf
00000050: 65fc a7be 3c46 b4bd a27f a23d e990 713e
00000060: c372 8fbe c291 9d3e 17f0 bb3e 067b ad3d
00000070: 71a7 073e bfcd 133d 5b78 8fbd 9723 563d
00000080: 595d 233d c7c3 7cbd 4f0d 913d ca5a 60bd
00000090: b843 913d 4df0 b63d 314f 05bd 2436 43bc
000000a0: fa9c 1e3e 195b a43d d557 1f3e ebad 233e
000000b0: 3d2b 183e fa8c 063d 87e7 bd3d 6cee 253d
000000c0: f6c5 993d c9a5 873e e322 0f3e c639 e3bd
000000d0: 60b2 843d 0e19 1a3e 5e85 513e 3c67 1abd
000000e0: 68ae 55be f0c5 8a3e bf2b af3d 04d0 943d
000000f0: 61b2 cabd a4c0 7cbe 3b70 53be 67a1 0abf
00000100: af4f cdbe 42e7 fb3d 437a 42bf fcf2 efbe
00000110: 7a16 81be 4573 d6bf 3ab5 a6bf f55e 88be
00000120: 9c59 d0bd 69fe 903d 0198 913e cb44 8c3d
00000130: 7dd0 fa3d 660c 9d3e a31e 573c 934b 863d
00000140: 9f34 793e dfc9 1dbe fc3e d7bd 6df1 db3d
00000150: 0089 ffbd 7ff3 f83d a00b 813e eca4 f73c
00000160: 27ac 993d 646a 543e 2902 a7bd babf 863d
00000170: 364e 263e 9022 6cbe 83c3 c2be cd96 96be
00000180: 758c 993e d5ac 6bbc 689b aabd 64e1 ce3e
00000190: 980d 0f3f 64dd cb3e 56a4 933e be5f 70bc
000001a0: 3ef7 57be 532b 693d 6e55 95be 97c1 2cbf
000001b0: 4a24 28be a866 25be 7cf2 a9be 8f01 553e
000001c0: c51e b13d 9683 22bc 3b8b b3bc b53e 2c3e
000001d0: 3974 7b3d 6190 70bd b312 8abc 0056 9939
000001e0: fc74 603d b856 a63d 943c fd3c 5ad5 67bb
000001f0: cf5f 9d3d 264c 24bd ee24 03bb f34f 193e
00000200: 4b1a 93bd 7aad 193d cdcd 6abd 5596 62be
00000210: 2430 cab9 b224 b8bd 823f d3be 9c47 61be
00000220: cb32 89bd 4858 22be 27d6 c3bd f713 393e
00000230: 0d47 c13d 17ba 03bc c05a 8f3e dc58 663e
00000240: 2837 86bd ef60 9e3d f632 173e 34b7 f53d
00000250: 26bb c03e 2dd8 a53e 6957 ac3d 24b9 7e3e
00000260: 7bca e73e 5b48 b8be 4408 38bf 0ed6 24bf
00000270: 6531 87be 5973 75bf e9f9 69bf fa51 15be
00000280: ea84 4fbf c673 93bf 246f c7be 944f d6be
00000290: c3e5 c2be 9e0c 47be be4b 84be e85c c5bd
000002a0: e048 933e c247 313e 5b40 6cbd b28e e93d
000002b0: 9ea7 2b3e abf7 bc3c 83dd b0bd 0503 c4be
000002c0: 265a 2bbf 1cdd c53d 386a e8bd c258 0abf
000002d0: 5be2 05be b6fb cabc fac9 adbd 7ed4 c2be
000002e0: fffd acbe 9e7e b2be 6509 2f3e 4e8d 1ebe
000002f0: 697f 97bd 92d8 833e c745 dc3d 8253 c0bd
00000300: 5aac 863e 2e00 cfbc 57f5 4f3e 6d4e 58bd
00000310: fabc 2bbe 1540 073d 1a32 253f 3352 bc3e
00000320: c105 1f3c d98c 703e 4433 893e 8d27 4cbe
00000330: 1e48 b6bc d663 5cbe 2e65 f4be c06a 82bc
00000340: ffad c8bd 2244 9bbd 5e52 b8bd ea26 efbd
00000350: 861b 33bd 882c d7bc 4a96 6bbd 4bab 3ebd
00000360: d1da 46bd 7077 24bd 4223 e33b dc37 9cbd
00000370: 7097 02be af41 d43d bc2a e8bd 6410 61be
00000380: 3c4a b43c 9cb5 09be 422a cdbe 4fe2 a2be
00000390: b5c0 9a3d 4e0b 53be 2ef9 0dbf d69e f03e
000003a0: 4255 293e 0033 bbbe 5ae9 c3bb 5c94 a1be
000003b0: 990e 92be cb4c f63d 1ecd fabd 0404 1fbe
000003c0: 56bc 4f3e e16f 6d3c f0af 9cbd 4f7f 723e
000003d0: 5ec2 da3c 9c12 76be c194 ce3e 1283 d73e
000003e0: ed19 6bbe c479 af3e 7589 263e e88a 96be
000003f0: de45 ecbe a67e c1be b307 ad3d a9c7 19bf
-0.5123226 -0.526047 -0.28243273 -0.4271357 -0.50524527 -0.52223384 -0.1078605 -0.17585093
-0.23292537 -0.10266203 -0.2534133 -0.29888216 -0.022857187 0.043710288 -0.20660405 -0.0020918718
0.12137229 0.042029765 -0.36365396 -0.54749197 -0.3280975 -0.08802459 0.079345 0.23590435
-0.28017244 0.30775267 0.36706612 0.084707305 0.13247468 0.036084887 -0.07005378 0.052280035
0.039883945 -0.061710145 0.070826165 -0.054774083 0.070929945 0.089325525 -0.032546226 -0.011914764
0.1548957 0.08025188 0.15560849 0.15984313 0.14860244 0.03284929 0.09272676 0.04051058
0.07508461 0.26493672 0.13978152 -0.11095004 0.06479335 0.1504862 0.20461032 -0.03769611
-0.20867312 0.2710414 0.08553266 0.07266238 -0.09897304 -0.24682862 -0.20648281 -0.5415253
-0.40099856 0.12299968 -0.75967807 -0.4686507 -0.2521246 -1.6753927 -1.3024056 -0.26634946
-0.10173342 0.07079775 0.28436282 0.06849059 0.12246797 0.30673522 0.013129863 0.065573834
0.2433648 -0.15409039 -0.1051006 0.10739408 -0.124773026 0.12155818 0.25204182 0.030230008
0.075035386 0.2074371 -0.08154709 0.06579538 0.16240773 -0.2306006 -0.3803979 -0.29411927
0.29989973 -0.014384468 -0.08330423 0.40406334 0.5588012 0.39817345 0.28836316 -0.014671264
-0.21090409 0.056926083 -0.2916674 -0.67482895 -0.16420093 -0.16152442 -0.33192813 0.20801376
0.08648447 -0.009919068 -0.021916976 0.16820796 0.061390135 -0.05873144 -0.01685462 0.0002924651
0.054799065 0.08122009 0.030912675 -0.003537497 0.0768429 -0.040111683 -0.0020011025 0.14971904
-0.07182749 0.037518956 -0.057325173 -0.2212766 -0.0003856431 -0.08991374 -0.4125939 -0.21999973
-0.06699141 -0.15853989 -0.09562331 0.18074022 0.0943738 -0.008039973 0.27998924 0.22494835
-0.06553489 0.07733332 0.14765534 0.11997834 0.37642783 0.32391492 0.0841511 0.24875313
0.45271668 -0.35992703 -0.7188761 -0.6438912 -0.26404873 -0.9587913 -0.9139696 -0.14582053
-0.81062186 -1.1519706 -0.3895198 -0.41857588 -0.3806592 -0.19438407 -0.25839037 -0.09636861
0.28766537 0.1731253 -0.05767856 0.1140417 0.1676316 0.023067316 -0.08636 -0.38283554
-0.6693443 0.09661314 -0.113483846 -0.54041684 -0.13074629 -0.024778228 -0.084857896 -0.38052744
-0.33787534 -0.34862226 0.17093427 -0.15483591 -0.073973484 0.25751168 0.107554965 -0.09390928
0.2630337 -0.02526864 0.20308433 -0.052809168 -0.16771308 0.033020098 0.64529574 0.36781463
0.009705962 0.23491229 0.26796925 -0.19936962 -0.022251185 -0.2152246 -0.47733444 -0.015920043
-0.09798812 -0.07581355 -0.09000085 -0.11677344 -0.04372742 -0.026266351 -0.057516374 -0.046550076
-0.048548523 -0.040152967 0.0069316933 -0.07627842 -0.12753081 0.10364091 -0.11336276 -0.21978909
0.022008054 -0.13448185 -0.40071303 -0.31813285 0.07556287 -0.20609781 -0.55458343 0.46996182
0.1653643 -0.36562347 -0.0059787454 -0.31558502 -0.28526762 0.12026366 -0.12246154 -0.15528876
0.20286688 0.014492006 -0.07650745 0.23681377 0.02670401 -0.24030536 0.40347865 0.42092186
-0.22959109 0.34272587 0.16263373 -0.29402852 -0.46147054 -0.37791938 0.08448734 -0.6007028

conv_block_2.0.bias f4 [10]
00000000: 4567 493e bb54 053d fd03 763e c414 3b3e
00000010: 4ad1 42bd a7b3 b5be ba9a 4a3d 110a 913d
00000020: a33c 66bc c64c 42bd
0.196683 0.03255151 0.24024959 0.1826964 -0.047562875 -0.35488626 0.049463965 0.07081998
-0.014052543 -0.047436498

conv_block_2.2.weight f4 [10, 10, 3, 3]
00000000: 59b3 c1bd 25a7 87be 1b52 93be ddaa b6bd
00000010: be57 ecbd 5869 87bd 1d23 153e 5502 833e
00000020: a2d4 643e a979 c73d 0031 8cbe c3d2 18bf
00000030: 9a74 843e 6b78 81be 0d8f 40bd 920c 1c3e
00000040: 504a 9fbe 5f1b cabc 19bc 25be 306c a43d
00000050: ccbe 5c3d 8d36 84bc a8d6 b13e e536 cd3e
00000060: d1e2 0cbe 82b5 25bd f67d b93d bee9 08bf
00000070: c6a7 08bf d507 25bf 8dff c8bd 13d2 7cbd
00000080: dd45 4ebe 94be 6fbe 2512 99be f05d 21be
00000090: 09f3 88bd f607 2dbf b1c1 36bf c9a6 80be
000000a0: 1e88 c7be 5b48 b1be ab6c e3bd 3c0b d6be
000000b0: 7753 33be 18e1 803d 61c2 36be 5958 34be
000000c0: 477a 8f3d 608d 9cbd f9a9 9cbd 7560 9cbe
000000d0: 8174 85be 31da 15be 6f0e 063e 5bcc 6e3d
000000e0: 80bf 793d 60d0 ac3d 67b2 f7bd 1f4d 94bd
000000f0: 74ac ae3c d57f 4dbd d44a 183e a63f 703e
00000100: faea 9d3e ff5f 463e 95d1 773e 8fb5 4e3e
00000110: bf9d d23e d81c 903e 3cb7 903e acd0 633e
00000120: 849b c13b 2624 943e 2836 053f 0e85 aebe
00000130: 830f 91bc d08d 4e3e 8fb4 60bf 9c61 d1be
00000140: 1a43 10bf 66b2 8dbc 4c6e 98be 111c a8be
00000150: 6524 e13d 9304 f4bd 47ff 64be 127d a63e
00000160: 62da 06bc c20e 2dbd fdb2 db3d cfa8 b6bd
00000170: 9881 3b3d 19cb aeba 24d7 11be 102f a2bd
00000180: f27d 96bd 298a ffbd 6f71 373e 6a4f 113e
00000190: adc1 193d e719 40be 2bee d83d a7ca 543e
000001a0: 97f4 fb3b 92f9 843e 803f af3e b607 113e
000001b0: 55fe 85bd 5e89 a1be 99f5 92be a758 3dbe
000001c0: 9069 f8be 1b6a dabe 7f2e f1bd 5b44 e8bb
000001d0: 77c5 54be ef93 52be 2bec 6ebe 6a15 82be
000001e0: 70ab 263e 34b2 373e e5e6 973c 910c af3d
000001f0: 0d22 7e3e 490e f43d f335 af3c ee15 923e
00000200: 9220 723e 5d55 bcbe 088a b8bd 01ab 64bd
00000210: 1dcf 3bbe 5a8c f8bd 3c38 773d 1f2c 52be
00000220: de35 a03d d56a 643e 30d3 14bd 4208 233c
00000230: 820e 8ebc 5329 873d 82c8 363e eb76 d7bd
00000240: 7564 b53e 93ce 8c3d f226 9b3d d5b6 70bd
00000250: 93c9 57bc 5735 b6bc 9ef7 f5be 1a98 d3be
00000260: a46a 9dbe 8c34 153c 0001 5bbd 5cf4 99be
00000270: 98e0 ac3e fca0 093e 35e7 a73d d788 4a3e
00000280: 5be3 f83d 8692 253e b8e6 7fbe afa8 48be
00000290: fc61 64be ea2c bdbe ff82 0b3d 710d ddbd
000002a0: 472a 5dbe 8a78 6b3e 8180 913e 6f9b 0e3f
000002b0: bc81 c73e b559 603e c9b8 253d 0181 c4be
000002c0: 2a47 11bf 981e 9ebe 2c0a 0abf d083 20bf
000002d0: 689f 6bbe 3f2e 59bf 522d 80be adee edbd
000002e0: 8b33 26bf 6f58 acbe 814c a83d 1d36 03bf
000002f0: b0b6 a2be 081d 8a3c 81fe 1c3b 49d0 d33e
00000300: 3769 06bf 2571 37bf 8db4 893c f578 ec3e
00000310: bc00 a23e 1500 72be 4546 b0bc 4c4e 48be
00000320: b677 183e 1525 10bd c583 1abf 9c81 b2be
00000330: e5f4 913d e5a5 9bbe e04f 9cbe f76c 48be
00000340: bf2d 13bd 8414 a93e 55d2 70be 8a6b 23bf
00000350: 33e9 aabe 31d4 1dbe 6cb9 49be 5cdc 85bf
00000360: cb75 6bbe c70d 00be 203c cd3d 1347 77be
00000370: 4a81 3b3e 1103 8e3d 011f 873d 9444 ae3e
00000380: 4f73 f63d 1ae0 8a3d f6fa bfbd 39a2 943a
00000390: a91a 76bd af5a e5bd 0582 99bd 0b9b 2d3d
000003a0: 6c80 8c3c b844 ea3c f5d6 073e 818d 98be
000003b0: 5bfb 093e ac27 28bd 32ba 5ebe b2e4 793d
000003c0: e48a 1e3e 0648 c13b 3df3 923d 9149 45be
000003d0: d2a4 abbd 52f6 2d3d 2c0d 843d 895c 9cbe
000003e0: 76b9 11be 23ac 73be 725d e8be 3bdf 19bf
000003f0: 7160 7d3c 9551 ac3e 613e d3bc b112 943d
-0.09458036 -0.2649471 -0.2877358 -0.08919308 -0.11540173 -0.066118896 0.14564176 0.25587717
0.22346738 0.09740002 -0.27381134 -0.59696597 0.2587021 -0.25287184 -0.047011424 0.1523917
-0.31111383 -0.024671255 -0.16185035 0.08028448 0.053892896 -0.016139293 0.34734082 0.40080944
-0.13758399 -0.040456302 0.09057228 -0.5348166 -0.53381 -0.64465076 -0.098143674 -0.06172378
-0.20143838 -0.23412544 -0.29896656 -0.1575849 -0.0668698 -0.6759027 -0.713893 -0.25127247
-0.38971037 -0.34625515 -0.11104711 -0.41805446 -0.17512308 0.06292933 -0.17847587 -0.17611827
0.070057444 -0.07644153 -0.07649607 -0.3054234 -0.26065448 -0.14634015 0.13091443 0.058300357
0.060973644 0.08438182 -0.120945744 -0.07241272 0.021322466 -0.05017074 0.14872295 0.2346178
0.30843335 0.19372557 0.24201043 0.20186447 0.41135976 0.28147006 0.28264797 0.22247571
0.0059084315 0.2893383 0.5203576 -0.34085888 -0.017707592 0.20171285 -0.8777551 -0.40894783
-0.5635239 -0.017296981 -0.2977165 -0.32833913 0.1099327 -0.11914935 -0.22363006 0.32517296
-0.008230777 -0.042250402 0.10727499 -0.089189164 0.045777887 -0.0013335674 -0.14242226 -0.07919133
-0.07348241 -0.12477524 0.17914365 0.1419045 0.03753822 -0.18759881 0.10592302 0.2078043
0.0076890695 0.25971657 0.34228134 0.14163098 -0.065426506 -0.31550115 -0.28703 -0.1849085
-0.48518038 -0.42659077 -0.117764466 -0.0070882267 -0.20778452 -0.20564245 -0.23332278 -0.25406963
0.16276336 0.17939073 0.018542716 0.08547319 0.24817677 0.11916787 0.02138803 0.28532356
0.23645237 -0.36783877 -0.09010702 -0.055827145 -0.18340726 -0.12136145 0.060356364 -0.20524643
0.07822774 0.22306378 -0.036334217 0.009950699 -0.017340902 0.06599679 0.17849925 -0.10520729
0.35428205 0.068753384 0.075757876 -0.058768112 -0.013170618 -0.022242231 -0.4804048 -0.41326982
-0.30745423 0.009106766 -0.05346775 -0.30069244 0.337651 0.13440317 0.08198396 0.19778763
0.121527396 0.16169176 -0.24990356 -0.19595598 -0.22303003 -0.3694833 0.034060474 -0.10793579
-0.21598159 0.22995201 0.28418353 0.5570592 0.38966167 0.2190922 0.040459428 -0.38379672
-0.5674921 -0.30882716 -0.5392177 -0.6270113 -0.23010027 -0.8483619 -0.25034577 -0.116177894
-0.649224 -0.3366122 0.08217717 -0.51254445 -0.31780005 0.016859546 0.0023955407 0.41369846
-0.52504295 -0.7165702 0.016809726 0.46186033 0.31641185 -0.23632844 -0.021517882 -0.19561118
0.14889416 -0.035191614 -0.60357314 -0.3486451 0.07126788 -0.30400005 -0.3052969 -0.19572817
-0.0359323 0.33023465 -0.23517735 -0.63835967 -0.33381042 -0.15412976 -0.19699639 -1.0457873
-0.22994153 -0.12505256 0.100212336 -0.24148206 0.18311039 0.069341786 0.065977104 0.34036696
0.12033712 0.06781025 -0.09374039 0.001133985 -0.06008402 -0.11198937 -0.074955024 0.04238419
0.01715108 0.02859722 0.13265593 -0.2979546 0.13474791 -0.04105346 -0.21750715 0.061009116
0.1548267 0.0058984784 0.071753 -0.19266345 -0.08381046 0.042471237 0.06447825 -0.3053935
-0.14230904 -0.23796134 -0.45383793 -0.6010625 0.015464888 0.33655992 -0.02578658 0.072301276

conv_block_2.2.bias f4 [10]
00000000: 7c4d 3d3e 77ab 6e3e ce52 e33d 22c0 2fbf
00000010: 0f07 873e f1e6 113e 7470 ecbe 0d16 8a3d
00000020: 235e a9be 3dfc 22be
0.18486589 0.23307596 0.11099778 -0.68652546 0.26372573 0.14248253 -0.46179545 0.06742487
-0.33079633 -0.15916534

classifier.1.weight f4 [8, 2560]
00000000: 6c72 1bbe 32f6 883e d6cf 03bd 9742 97be
00000010: 4daf 58be 78e5 b4bd 6a61 6f3e 90f2 76be
00000020: 9c3b 13bf feae fcbe d19a eabe 7bbf 4dbe
00000030: ba40 a6bc 44d9 c03c a192 c6be 2a90 643c
00000040: 8bbc 94bd c7ee 52be 7568 a7be d825 a33c
00000050: fb87 063e 5852 95bd 3278 913d 7abf 083e
00000060: 88a0 0abe 4159 2e3c d79d ac3d c53c 96be
00000070: 43ab 81be 16b1 aa3e aee6 f33c dbcc d1be
00000080: a92c 54be 9a4f 1cbc b071 4fbe 396d 3d3d
00000090: d605 423d 1a82 a63e 60d5 0abe b2c7 d93e
000000a0: a06c b1bd 0d85 b9bc f96e 293e bcb2 f13d
000000b0: 8de9 a73d 1928 0cbd 052e 503e 18d3 2abf
000000c0: 0c44 03bf b6ad 1c3e 4fbb 1d3e c07d 013e
000000d0: 2747 0b3e d6a1 11be 754e 40bd 4e22 853d
000000e0: 41d6 8b3d 0fe7 af3d e9a9 463e d267 e83e
000000f0: c56a 263e edc6 1ebe aff2 fbbd a23b 39bf
00000100: deeb 88be c6f2 1fbe 75eb 62be 75c0 9dbd
00000110: ce2d 1b3c ee2e fbbb e453 aa3d 328d 483e
00000120: 1eab 813d 5078 eb3d 9392 fe3d 280f 063e
00000130: 5346 913d ae70 f03d 3dd8 27bd aca1 223e
00000140: 0ff7 aabc eea2 933e 2d4d 573e 7324 0d3d
00000150: 0f84 8c3b c6c5 7ebe 5c17 c33d ac64 183e
00000160: 9551 00be ca48 1fbe 3c8a c53d 01fa 8a3e
00000170: 64cd 433d 24d8 52be de88 a9bd 8c83 7f3c
00000180: 4837 6e3e 8f34 a73d db3a b53d 7931 8bbc
00000190: 041e f83d 90bd 383e c330 563d 639e 42bd
000001a0: aa24 5d3e 7757 4b3e 4276 193e f0fc 593c
000001b0: 51f9 3bbe 37fe 823d d59a b33b c33e 35be
000001c0: 8ab0 fdbc 879d 6cbb 586f 123e 60cc 88be
000001d0: 0c41 b2bd a0aa 9b3d e63b 2a3e b173 cebd
000001e0: 7202 1ebe f0e4 463c 8ac6 063c 48f8 0fbd
000001f0: efc6 833d 5ba1 c5bd 11dd 5ebe 3725 0dbe
00000200: 2c02 2abc 649d 68bc 032f 6abd 5599 503e
00000210: 3c7b f13d 8f22 eabc 34a6 6ebe d0a5 e23d
00000220: ff2e 7fbd 4c9b acbd 4c60 89bc a13d 0b3e
00000230: cb0d 373e 4d2e 00bd f405 18be 823a 8d3e
00000240: ee0f f03d a0ee 0a3e 7f30 3abd d180 853c
00000250: f894 8c3c 4219 91bd 8bd6 db38 b52a 813e
00000260: 3a20 f53d 329c b2bd 1442 60be 93d7 73be
00000270: 4db8 c7be bc2a e03d 3a6a a0bd 786d 083e
00000280: 65e1 c0bd 5964 16bd afbb 203d a831 80be
00000290: 3f15 97be 00bc 81be 729b ecbb 6458 113e
000002a0: dca0 33bc 5e23 d13c 3f6e c33d 3d56 9b3c
000002b0: 5820 62bd 6265 803e 91e9 1e3d ff26 233e
000002c0: 8e96 393e faf5 16be 7947 1d3e c4d5 b4bc
000002d0: 973c cabe 59db 94be 39fe f03e c178 1b3e
000002e0: 2d38 f7bd 5e51 1c3e 7614 fd3d a77a 053e
000002f0: 3e0b 223e b7ec 963d b40d ae3e 7cde 923e
00000300: 65c4 c53d 4a5f c6bd b06e 613e eee8 97bd
00000310: e87a 8b3d 0bc7 da3d 348f 413d 23f9 0fbe
00000320: db33 88be a189 9bbc 15eb b63d 4f17 c0bd
00000330: 67c1 f33d bb2f 5a3e 2c46 323e 1fb3 64be
00000340: 03b0 8d3d e63b 86bd 6a79 46be a3ba 95bd
00000350: eb9b 093e 4018 363e 0f3d b13d abe4 2a3e
00000360: 64d8 523e dd9b cabd 8271 493e 7351 833d
00000370: c8eb b13c 7839 963e 6dfa b63e c487 d6be
00000380: 28c1 963e 5542 f43e 4f81 b33e 6b22 ce3d
00000390: 7c0d 473e 3058 183d 62bf 80be 4139 abbe
000003a0: b98a 14be 065f 80bd 974c 413c 2df3 8e3e
000003b0: 51cb 82be 857e 7dbe 1a3c 0a3e 22c5 743e
000003c0: ea7f 6ebe 0542 193e d143 d5bd 4ada 6fbd
000003d0: 7f0d ccbe f129 14bd 3d66 8ebc f616 87bd
000003e0: 3b45 9ebe 23dd afbe 9c16 8abe 89b9 a13d
000003f0: c2f6 02be cd77 19be e71f 3abe 45ef 0c3c
-0.15180367 0.26750332 -0.03218063 -0.29542992 -0.21160622 -0.0883283 0.23377004 -0.24115968
-0.5751283 -0.49352258 -0.4582124 -0.20092575 -0.020294536 0.0235411 -0.38783744 0.013950387
-0.07262524 -0.20598899 -0.32696882 0.019915506 0.1313781 -0.072910964 0.071030036 0.13354293
-0.135378 0.010641397 0.08428543 -0.29343238 -0.25325975 0.3333823 0.029773083 -0.40976605
-0.20720161 -0.009540463 -0.20258212 0.04624674 0.047368847 0.32521135 -0.13557959 0.42535168
-0.08663297 -0.022646451 0.16546239 0.11801669 0.08198843 -0.034217928 0.20330055 -0.66728354
-0.51275706 0.1530064 0.15403484 0.12645626 0.13601361 -0.14221892 -0.046949822 0.06500684
0.06827975 0.08588993 0.19400753 0.4539171 0.16251667 -0.15505572 -0.123021476 -0.7235662
-0.26742452 -0.15619954 -0.22160132 -0.07702724 0.00947137 -0.0076655066 0.08316782 0.19585112
0.06331466 0.11497557 0.124303006 0.13091719 0.070934914 0.11740242 -0.040977705 0.15881985
-0.02086976 0.28835243 0.21025534 0.03445859 0.0042882035 -0.24880132 0.0952594 0.14882153
-0.12531121 -0.1555511 0.09645507 0.27143863 0.047803298 -0.20590264 -0.082780585 0.015595328
0.23263276 0.08164322 0.088491164 -0.016991364 0.121151 0.18041062 0.052292597 -0.04751433
0.21596017 0.19857584 0.14986518 0.013304934 -0.18356825 0.06396144 0.005481104 -0.17699723
-0.03096797 -0.0036104636 0.14300287 -0.26718426 -0.08703813 0.076009035 0.16624412 -0.1008066
-0.1543062 0.012139544 0.008226046 -0.03514889 0.06434428 -0.09649917 -0.21764018 -0.13783728
-0.010376494 -0.014197681 -0.05717374 0.20370992 0.11791083 -0.028580932 -0.23305589 0.110667825
-0.06230068 -0.08428058 -0.01676955 0.13597728 0.17876355 -0.031294156 -0.14846021 0.275837
0.11721788 0.1356759 -0.045456406 0.016296776 0.017160878 -0.07084896 0.000104826955 0.25227895
0.11969037 -0.08721198 -0.21900207 -0.23812704 -0.39007798 0.10945651 -0.07832761 0.13323009
-0.094179906 -0.036716793 0.03924149 -0.25037885 -0.29508397 -0.25338745 -0.007220679 0.14193875
-0.010963645 0.02552956 0.09542512 0.01896202 -0.055206627 0.2507735 0.038796965 0.15932845
0.18123838 -0.1474227 0.15359296 -0.022074588 -0.3949935 -0.290736 0.47068956 0.15182783
-0.120712616 0.15265414 0.12357418 0.1303507 0.15824601 0.073693685 0.3399483 0.28685367
0.096566 -0.09686144 0.2201488 -0.07417475 0.06810552 0.10682496 0.04725571 -0.14059882
-0.26602063 -0.018986525 0.08931557 -0.09379446 0.11902123 0.2130727 0.17409581 -0.22333954
0.06918337 -0.065543935 -0.19382253 -0.07310989 0.13438384 0.17782688 0.08654224 0.16688792
0.20590359 -0.0989301 0.19672206 0.064120196 0.021718875 0.2934072 0.35737935 -0.41900456
0.29444242 0.47706857 0.35059592 0.100651585 0.19438738 0.037193477 -0.25146013 -0.3344212
-0.14506043 -0.06268124 0.011798046 0.27919903 -0.25545743 -0.24755295 0.1349949 0.23903325
-0.23290983 0.1496659 -0.104133256 -0.058557786 -0.39854047 -0.03617281 -0.017382735 -0.06596176
-0.30912194 -0.343484 -0.26970375 0.07896716 -0.12789443 -0.14987107 -0.18176232 0.008601968

classifier.1.bias f4 [8]
00000000: 5860 de3d 4583 53be d2d1 6ebe 194f cf3e
00000010: 3053 61be b6ef 99bd 39f3 f83d 387d 1abe
0.1085822 -0.20655544 -0.23322228 0.40490034 -0.2200439 -0.07516424 0.12155766 -0.1508683
